…
             Model Summary using `torchinfo`
================================================================================

=================================================================================================================================================
Layer (type:depth-idx)                        Input Shape               Output Shape              Param #                   Mult-Adds
=================================================================================================================================================
MultiTokenTransformer                         [1, 51]                   [1, 47]                   5,120                     --
├─ModuleList: 1-1                             --                        --                        --                        --
│    └─Linear: 2-1                            [1, 3]                    [1, 256]                  1,024                     1,024
│    └─Linear: 2-2                            [1, 3]                    [1, 256]                  1,024                     1,024
│    └─Linear: 2-3                            [1, 3]                    [1, 256]                  1,024                     1,024
│    └─Linear: 2-4                            [1, 3]                    [1, 256]                  1,024                     1,024
│    └─Linear: 2-5                            [1, 3]                    [1, 256]                  1,024                     1,024
│    └─Linear: 2-6                            [1, 3]                    [1, 256]                  1,024                     1,024
│    └─Linear: 2-7                            [1, 3]                    [1, 256]                  1,024                     1,024
│    └─Linear: 2-8                            [1, 3]                    [1, 256]                  1,024                     1,024
│    └─Linear: 2-9                            [1, 3]                    [1, 256]                  1,024                     1,024
│    └─Linear: 2-10                           [1, 3]                    [1, 256]                  1,024                     1,024
│    └─Linear: 2-11                           [1, 3]                    [1, 256]                  1,024                     1,024
│    └─Linear: 2-12                           [1, 3]                    [1, 256]                  1,024                     1,024
│    └─Linear: 2-13                           [1, 3]                    [1, 256]                  1,024                     1,024
│    └─Linear: 2-14                           [1, 3]                    [1, 256]                  1,024                     1,024
│    └─Linear: 2-15                           [1, 3]                    [1, 256]                  1,024                     1,024
│    └─Linear: 2-16                           [1, 3]                    [1, 256]                  1,024                     1,024
│    └─Linear: 2-17                           [1, 3]                    [1, 256]                  1,024                     1,024
├─ModuleList: 1-2                             --                        --                        --                        --
│    └─Linear: 2-18                           [1, 512]                  [1, 256]                  131,328                   131,328
├─TransformerEncoder: 1-3                     [1, 19, 256]              [1, 19, 256]              --                        --
│    └─ModuleList: 2-19                       --                        --                        --                        --
│    │    └─TransformerEncoderLayer: 3-1      [1, 19, 256]              [1, 19, 256]              789,760                   526,592
│    │    └─TransformerEncoderLayer: 3-2      [1, 19, 256]              [1, 19, 256]              789,760                   526,592
├─Sequential: 1-4                             [1, 256]                  [1, 47]                   --                        --
│    └─LayerNorm: 2-20                        [1, 256]                  [1, 256]                  512                       512
│    └─Linear: 2-21                           [1, 256]                  [1, 47]                   12,079                    12,079
=================================================================================================================================================
Total params: 1,745,967
Trainable params: 1,745,967
Non-trainable params: 0
Total mult-adds (M): 1.21
=================================================================================================================================================
…
